best.pth (torch, 231466 bytes, 5 tensors)

conv1.weight f4 [64, 1, 9, 9]
000000 c8 9c cd bc 73 bc 5d 3c 1f 3e 29 bd 31 eb 51 3d
       -0.025099173 0.013533699 -0.04131901 0.051249687
000010 d4 61 da bd f0 08 22 3d 77 92 fa bd f3 6f d2 bd
       -0.106631905 0.039559305 -0.12234967 -0.10275259
000020 03 aa 92 bd 81 ca 43 3d eb 98 31 bd 40 a3 60 3d
       -0.071613334 0.047800545 -0.043358725 0.054843187
000030 7f 07 a6 bd 4a 69 9b bd 20 fd a0 bd c6 db 56 bd
       -0.081068985 -0.07588442 -0.0786078 -0.052455686
000040 f5 03 ab bd 77 14 a9 3d 2e 0c 4a bd 58 3f b2 3c
       -0.08350364 0.082558565 -0.04932802 0.02175872
000050 1c e8 c1 3d 60 0e 52 3d 5e dd 43 3d c9 cb c5 3d
       0.094680995 0.05128324 0.047818534 0.096580096
000060 7d f5 66 bd e5 af 5e 3d e7 9a 08 bd f8 80 24 3d
       -0.05638646 0.054366965 -0.03335085 0.040162057
000070 bf 5c 76 3d ef b3 b6 bd 27 c2 10 3e d9 30 c7 3d
       0.060147043 -0.08921038 0.14136563 0.09726114
000080 a9 a4 7d 3d d5 46 6e 3d 03 3b fb 3d 45 13 67 3b
       0.06192461 0.05817302 0.12267115 0.0035259288
000090 9f dd 03 be 33 4c 78 bd 94 22 82 bd 39 01 80 3d
       -0.1287751 -0.060619544 -0.063542515 0.06250233
0000a0 c0 14 05 3d aa 63 33 bd a3 b3 50 b9 4d 31 06 3e
       0.032490492 -0.04379622 -0.00019903346 0.13104744
0000b0 b0 08 83 3b 46 6a 9e bc b7 99 26 bd dd cf df 3c
       0.0039988384 -0.019337784 -0.040673938 0.027320797
0000c0 95 24 0a 3e 9e 88 b7 3d 94 14 91 3c 7d d1 48 ba
       0.13490517 0.089616045 0.017710008 -0.0007660611
0000d0 d2 8b cf 3c c3 4c 1c 3d 8f b0 4c bc a0 24 da bd
       0.025335226 0.038159143 -0.012493267 -0.10651517
0000e0 f3 7b 5f bd 9b cc ec 3d 41 43 2c 3b c5 51 0a be
       -0.054561567 0.11562463 0.0026285204 -0.13507755
0000f0 5b 81 d4 bc a1 c9 9e 3d f2 e8 ef bd fd 78 32 bd
       -0.025940588 0.077533014 -0.11714353 -0.043572415
000100 e2 1b 91 bc c5 09 1e 3d 49 f6 88 3b 1d b2 ff bb
       -0.01771349 0.038583536 0.00417975 -0.007803215
000110 e8 1e 0e be 41 5c 9c 3c d6 f9 ad 3d f0 37 46 3d
       -0.13878977 0.019086959 0.08494918 0.04839319
000120 93 29 0c bd e5 68 57 bd 17 cc ad 3d 0e d5 0f 3d
       -0.034219336 -0.05259027 0.08486193 0.035115294
000130 89 b4 6e 3d 8f e4 00 be 92 bc 0d bd 9d 12 6d 3d
       0.05827764 -0.12587188 -0.034603663 0.05787908
000140 ec 92 66 3c f4 5a d4 3b c2 5d b1 3c 5c 8a bf bc
       0.014073115 0.006480569 0.021651153 -0.023381405
000150 dc ca ac bd ff 1b 7f bd 71 c5 90 bd 46 07 bf 3d
       -0.0843713 -0.06228256 -0.07068909 0.09327559
000160 9a 81 5b 3d a4 98 24 3c e2 ce 84 bd 6e 88 d7 3d
       0.053590395 0.010046158 -0.06484772 0.10524069
000170 f7 1f 2b 3d b0 c8 90 3d c3 b7 51 bd f9 27 02 3d
       0.04177853 0.07069528 -0.05120064 0.031776402
000180 08 6f fe 3d 97 a5 b3 3d 0b 9f a8 3d 74 52 bd bb
       0.12423521 0.08771818 0.0823346 -0.0057776514
000190 d6 10 d3 3d 61 df a2 bd 00 36 9d 3a c7 b9 a0 bd
       0.103059456 -0.079527624 0.0011994243 -0.07847934
0001a0 f0 1b fe bc 2a 03 cb bc 66 ca 68 3c 96 be b4 3d
       -0.031019181 -0.024781782 0.014208412 0.08825414
0001b0 4a 9a 82 3d ea 8e 52 3c d7 83 b1 3d cc 56 81 bd
       0.063770846 0.012851456 0.086677246 -0.06315383
0001c0 b1 84 27 3d 90 81 ab bc 59 a3 c1 bc d4 1d 31 3c
       0.04089803 -0.020935804 -0.02363746 0.010810334
0001d0 79 ec dc bd 46 a3 59 3b 25 07 1d 3d 71 23 cf 3d
       -0.10787291 0.003320889 0.03833689 0.10114182
0001e0 2d 4c 0a bd 9e 58 05 3d d2 21 d9 3d 32 6b 4c bd
       -0.033764053 0.032555215 0.10602154 -0.049906917
0001f0 b3 21 d7 3d 11 d6 9a bd 34 03 b8 3c 7c bb 08 3d
       0.105044745 -0.07560361 0.022462465 0.033381924
000200 87 e3 10 3d 35 b3 bd 3d 1e 8b 48 bd 6c 01 bf 3c
       0.035373237 0.09262697 -0.048960797 0.023316108
000210 83 c5 84 bb 02 a0 ab bd f6 ca 31 bd 48 4b d9 bd
       -0.0040518655 -0.083801284 -0.04340645 -0.10610062
000220 99 39 0d 3d 47 f1 77 3c bf 8f 85 3c 32 8e 37 bd
       0.034478758 0.015133209 0.016303895 -0.044813342
000230 0d dc a0 bc ac 32 56 bd 99 87 db 3c c8 bb c4 3d
       -0.019636178 -0.05229442 0.026798056 0.09606129
000240 60 3a 6c bc 68 05 8c bd ff f2 89 bd c4 a3 dd 3b
       -0.014418215 -0.06836969 -0.06735801 0.006763907
000250 70 a1 d7 bd bd b8 ef bd cf f3 cd bd 21 bc 3e bd
       -0.10528839 -0.11705158 -0.100562684 -0.046566132
000260 fc fb fc 3a 8c f7 92 3d 96 db 24 3d 67 26 c9 3d
       0.0019301171 0.07176122 0.040248476 0.09821778
000270 b8 13 67 bd 8b 4e 06 3c 45 49 d7 bd 70 3b 7c 3d
       -0.05641529 0.008197437 -0.10512022 0.06158012
000280 4b 1d 0d 3d 74 f5 f3 3d 89 15 97 bd 02 09 c5 3d
       0.034451764 0.11912051 -0.073771544 0.09620859
000290 81 5d d9 3d db 26 de 3d bc 54 13 3d 66 dc f6 3d
       0.106135376 0.10847255 0.03596948 0.120537564
0002a0 37 87 bb 3d 99 a0 c5 3d c5 de 37 3a c3 e0 a4 bd
       0.091566496 0.09649772 0.0007014091 -0.080506824
0002b0 7b 20 4c 3b 2f 39 c9 3c b1 db 93 bd 0b bd 80 bd
       0.003114729 0.0245634 -0.07219637 -0.06286057
0002c0 4b b4 d8 bd d1 9e 16 bd bd 34 ca 3d b8 4f 81 3c
       -0.10581263 -0.036772553 0.0987334 0.015785083
0002d0 22 4a 9e 3a fb e7 45 3c 6e 26 9a 3d 17 ce bf bd
       0.0012076537 0.012079234 0.07526861 -0.093654804
0002e0 e6 01 af bd c3 5f 17 bd 54 6e 77 bd fa db 83 3d
       -0.08545284 -0.03695656 -0.06040795 0.064384416
0002f0 db 90 aa 3d 92 58 ca bd 06 09 ac bd 95 6d c6 bd
       0.0832841 -0.09880175 -0.084001586 -0.0968887
000300 fd c7 5a 3d 9d a6 c6 3d 2e 78 a2 bd 55 c6 27 bd
       0.05341338 0.09699748 -0.07933079 -0.04096063
000310 c0 63 52 3d 74 81 65 bd ca 4c cb 3d 6c c3 06 3d
       0.05136466 -0.05603166 0.09926756 0.032901213
000320 7a 5c ac bc a0 0b 99 3c d6 97 2e 3d d4 ae 05 bd
       -0.02104019 0.018682301 0.04262527 -0.032637432
000330 3c bc 9d bd 73 ce 71 3c f5 00 8c 3c d1 77 c4 3b
       -0.077019185 0.014758694 0.0170903 0.0059957285
000340 58 af 33 bc a6 22 a0 3d 2c 69 c4 bc b1 d8 ea bb
       -0.010967098 0.07819109 -0.023975931 -0.007166945
000350 42 e0 45 3d 83 18 85 bd 10 6e 1e 3d e0 97 86 bc
       0.048309572 -0.06498816 0.038679183 -0.016429842
000360 f7 1f 86 3d 30 2d 40 bd 41 f1 8e 3c 7c 52 b6 3c
       0.065490656 -0.046918094 0.017449023 0.022256128
000370 4e b5 a6 bd 55 64 96 bd db 1a 55 3d 5f 22 a7 bc
       -0.0814005 -0.073433556 0.052027564 -0.020402132
000380 17 90 97 3d 6e f9 b4 bd c5 10 07 bd 6a 3d 92 bd
       0.0740053 -0.088366374 -0.032974977 -0.0714062
000390 c2 36 7a 3d 2f e7 36 3c ee 6a cb bb 4f e3 cd ba
       0.061087377 0.011163517 -0.0062078154 -0.0015708002
0003a0 9c 96 8b bd d2 26 3d 3d e0 fb bb 3c 53 85 65 bd
       -0.06815836 0.0461796 0.022947252 -0.05603535
0003b0 d6 50 74 3d a0 8f 4a 3c 48 3d be bd 50 42 9b 3d
       0.059647404 0.012363344 -0.09289032 0.075810075
0003c0 c7 c2 9e 3d fe 7b 11 bb db 2d 75 bd 80 61 1a ba
       0.077519946 -0.002219915 -0.059858184 -0.00058891624
0003d0 d5 74 a2 3d 9b 39 c8 3d 98 6a b4 bd 6d 5a 61 bd
       0.0793244 0.09776612 -0.08809394 -0.055017877
0003e0 1e 8e a7 3d fe 82 4a 3d 09 10 83 3d 20 82 72 bd
       0.081814036 0.04944133 0.06399543 -0.059206128
0003f0 2b d2 b9 3d 8f 20 c3 bd cb 7e 04 bc a0 d4 9c b9
       0.090732895 -0.095276944 -0.00808687 -0.00029913057

conv1.bias f4 [64]
000000 8d 05 2d bb 17 4d ac bd 68 d7 63 3c 43 f0 8b bd
       -0.0026401014 -0.08413141 0.013906337 -0.06832936
000010 43 64 48 3d cc 42 2b bc ff 09 79 3d 01 5f f7 3c
       0.048923742 -0.010452937 0.06080055 0.030196669
000020 67 20 5b 3e ba d9 0c bd 85 2d 4e 3c 55 87 d6 3c
       0.2139908 -0.034387328 0.012584095 0.026187578
000030 b6 39 df bd de 1c 06 3e e4 6e aa 3b f5 db a9 3d
       -0.10899679 0.1309695 0.0052012075 0.082939066
000040 f0 6b 10 bd 32 30 2b bd 99 a9 27 3d 25 4d a4 3d
       -0.035259187 -0.04179401 0.040933225 0.08022527
000050 c0 94 47 3c 33 42 61 bb ff 16 cd bd 49 88 91 3d
       0.012181461 -0.0034371733 -0.10014152 0.071060725
000060 88 f6 31 bd 8e 3b a1 3d 91 03 4b bc 74 1a f1 bc
       -0.043448 0.07872687 -0.012390987 -0.02943156
000070 69 8b e7 3c 9e f5 37 3d ea 13 b2 3d 1d a3 25 3c
       0.028264718 0.044911973 0.086952046 0.01010969
000080 4e 1d 46 3d a7 d3 2b 3e e0 59 25 3c 17 46 d7 bd
       0.04836779 0.16779958 0.010092229 -0.105114155
000090 eb d5 30 3c 60 82 ad 3d 76 f3 52 bd 31 a2 36 3d
       0.0107931895 0.08472133 -0.051501714 0.04458827
0000a0 27 7a 80 bd 3d 75 18 3d 26 a3 09 3e ec a9 ed bb
       -0.06273299 0.037221182 0.13441142 -0.0072529223
0000b0 b5 ca 09 3d 89 3b 4c 3c d1 24 84 bd ea 9f 60 3d
       0.033640582 0.012465366 -0.06452335 0.054840006
0000c0 e8 d5 18 bd d1 59 b0 bc 2d 7f 01 bc 9c 88 17 3e
       -0.037313372 -0.021527203 -0.007903856 0.14798206
0000d0 a9 41 ff 3c e5 ea c6 bc 4f 4a b2 3a 0d d6 14 bc
       0.031159239 -0.024281928 0.0013602468 -0.009084237
0000e0 c3 c2 be 3d 3a 84 5a bd b7 ac 0b bc d6 76 28 3e
       0.093144916 -0.053348757 -0.008525065 0.16451582
0000f0 07 0c 00 3e 41 b8 1a bd e8 c1 ca bd f2 cd bb bd
       0.12504588 -0.037773374 -0.09900266 -0.0917014

conv2.weight f4 [32, 64, 5, 5]
000000 ae 6c a6 39 72 00 22 3c 61 b1 14 bc ca 6e 5c bc
       0.0003174296 0.0098878015 -0.009075494 -0.013454149
000010 f3 93 65 bc 13 89 cb bc 05 4f d4 bc 9c 0b 48 bd
       -0.014012325 -0.024845636 -0.025916586 -0.048839197
000020 48 f8 10 bd 41 04 70 bc e3 02 b5 3c e0 8e 16 3c
       -0.03539303 -0.014649452 0.022096103 0.0091893375
000030 b5 ea fa bb 24 d2 bb bc d2 d0 fd 3c 65 d5 c0 bb
       -0.007657374 -0.022927351 0.030983362 -0.0058848136
000040 3c e5 d0 3c 42 47 a1 3a 21 b7 66 bc 2c 4c 3c 3d
       0.025499932 0.0012304562 -0.014081747 0.04597108
000050 07 a1 9e 3c e4 8a 0e 3d e9 1e 12 bc ce 0e 32 3c
       0.019363893 0.034800425 -0.008918502 0.0108677875
000060 cf f7 8d 3a 3e c5 7c bc 1e 75 d4 3c ac 69 bb 3c
       0.0010831299 -0.015427886 0.025934752 0.022877537
000070 b1 4a 11 bc c2 41 bc ba 9c 62 ad bc 72 68 6a 3c
       -0.0088679055 -0.0014362859 -0.021165185 0.014307128
000080 25 59 9d 3c 2f 2a 49 3c 19 5e 4b bc c5 ee 21 3c
       0.019207546 0.012278124 -0.012412571 0.009883587
000090 ec d2 45 bc 28 3b 4d 3c 75 42 1e 3c f6 51 7d 3c
       -0.0120742135 0.012526311 0.009659399 0.015461436
0000a0 87 f6 54 3b a0 02 a2 bb ec 62 e2 bc 2e 74 e7 3a
       0.0032495575 -0.0049441606 -0.02763506 0.0017658526
0000b0 9f 10 00 3c c7 58 8b bc 02 a3 fa 3c 53 9e b2 3c
       0.007816463 -0.017010106 0.030595306 0.02180401
0000c0 95 74 c3 3c a6 e0 ea 3c c1 07 f9 bc f2 ca 3f bc
       0.023859302 0.028671574 -0.030399205 -0.011706101
0000d0 29 ad 36 bd 8d 22 d8 bc 87 4c d9 bc 7d 86 a8 bc
       -0.044598732 -0.026383663 -0.026525749 -0.020571942
0000e0 36 2b 15 3c 07 68 9a 3c 5c 54 ec 3c 4d 9b 86 3c
       0.009104541 0.018848432 0.02884882 0.016431475
0000f0 85 fb fe ba 03 82 1e b9 81 d8 13 bc cb 9b 40 3c
       -0.0019453621 -0.00015116487 -0.0090237865 0.011755894
000100 98 10 e9 bb a1 d6 19 bc 4e d7 aa 3c 8b 30 e9 3c
       -0.007112574 -0.00938955 0.020854618 0.02846553
000110 ad fb d9 3c 11 7c da b8 c5 a1 c3 3c 8c 7d f7 3c
       0.026609266 -0.00010418159 0.023880849 0.030211233
000120 1d 9e 81 3c 99 81 6a 3c c7 8e 8e 3c 14 1d 6d 3b
       0.015822465 0.014313125 0.017402066 0.0036180662
000130 54 e8 75 bc 6a 29 a3 bc da 02 b3 bc 9c 02 7e bc
       -0.015009005 -0.019917209 -0.021851946 -0.015503552
000140 82 b8 89 bb 22 6b af 3c bb 17 6b bc d9 ff 9b bc
       -0.0042029032 0.02141339 -0.0143489195 -0.019042896
000150 64 da b4 3c df 4a 7d 3c 73 7b 4a 3c 07 2b 72 bc
       0.022076793 0.015459745 0.012358534 -0.014780766
000160 23 a2 b8 3c b9 69 83 3c 47 b0 43 ba e3 8a 97 3c
       0.02253825 0.016041623 -0.0007464927 0.018498844
000170 1d ae 87 3b ae a9 57 3c 1f 49 72 bb be 13 8d 3c
       0.004140629 0.013163013 -0.0036969853 0.017221328
000180 aa 91 0c bc 90 9f d0 3b 2d 3d 9b bc 3e 14 9c bc
       -0.008579651 0.0063666776 -0.01895007 -0.019052621
000190 cc 9b ac bc 41 81 a0 bc 27 18 46 3c 6d 42 ac 3c
       -0.021070383 -0.019592883 0.012090719 0.021027768
0001a0 07 8d 2b 3c 74 91 08 3b 79 4e 51 3b 76 35 41 3b
       0.010470635 0.002083865 0.0031937642 0.0029481328
0001b0 f7 05 d1 3c 77 4e 99 3c 73 28 ab bc 13 e8 91 bc
       0.02551554 0.018714173 -0.020893311 -0.017810857
0001c0 20 21 84 3c b3 2a 5f 3c 9c ed d3 bc 94 ca b4 bc
       0.016129076 0.01362102 -0.025870137 -0.022069253
0001d0 e9 74 49 3c c3 b7 68 bc 86 a1 a4 3c b6 02 5b 3c
       0.01229594 -0.014203968 0.020096552 0.013367346
0001e0 08 a1 71 bc d2 fd 0b 3c 50 e7 52 bb bf a2 9c bc
       -0.0147478655 0.008544402 -0.003218133 -0.019120572
0001f0 cf 06 4f 3c 46 cf 86 bb 3f 45 f1 3b 51 c2 12 bd
       0.012635901 -0.0041140644 0.007362991 -0.035829846
000200 11 14 92 bc 76 8a c7 bc d3 81 55 bd 1d d7 31 3b
       -0.017831834 -0.024358016 -0.052125763 0.0027136274
000210 89 6d b6 bc 0f 65 0d 3a ae 1b f6 bb 38 1a ab bc
       -0.022269027 0.0005393782 -0.007510624 -0.020886526
000220 d6 60 84 3b dc 52 99 3c 41 f8 f1 3c 17 5d 99 3c
       0.004039864 0.018716268 0.029537322 0.018721147
000230 68 b3 cc 3c 76 0f 01 3d 84 3a d8 b7 36 5e 08 3c
       0.024987891 0.031508885 -2.5776455e-05 0.008323243
000240 44 10 bb 3c b3 13 88 3c c8 a5 27 3d bc a7 22 3d
       0.022834904 0.016610956 0.040929586 0.039710745
000250 6b f6 45 3b 42 f9 85 bc a1 64 05 bc 92 17 c6 3a
       0.003020669 -0.016354207 -0.008141668 0.0015113226
000260 aa 84 2f bc 7d b3 f1 3c 20 18 91 bc 91 34 dd 3c
       -0.010712782 0.029504532 -0.017711699 0.027002605
000270 72 ea 9f 3c 6b d8 65 bc 47 7f e5 bb ae 22 fa 3c
       0.019520972 -0.014028649 -0.007003698 0.030534115
000280 f9 b2 b8 ba 77 f8 84 bc 4d fb db 3b 17 10 91 3a
       -0.0014091424 -0.016231759 0.006713307 0.0011067417
000290 ec b1 00 3c ea 31 5a 3c 7e d1 93 bc 4b 3b 09 bc
       0.00785492 0.0133175645 -0.01804423 -0.008375953
0002a0 d9 52 6e 3b 4a 92 da 3c 2a 03 56 bc 19 c7 ff bb
       0.00363653 0.026681084 -0.013062278 -0.0078057167
0002b0 77 63 8c 3c bf 58 ca 3c b2 4e 88 3b 59 f6 18 3b
       0.017137272 0.02470052 0.004159772 0.0023340194
0002c0 8e 2a 4e bb 66 30 23 bd af 77 1a bc 0a 61 ac 3c
       -0.003145847 -0.03984108 -0.009427949 0.021042366
0002d0 97 03 93 3d d6 72 bd 3c 76 6e a2 3c 5d e0 19 3d
       0.07178419 0.023126047 0.019828063 0.037567485
0002e0 82 58 15 3d 20 29 0e 3c 4a 57 27 3d 59 39 e6 bc
       0.03646136 0.008676797 0.04085473 -0.028103517
0002f0 77 ce c9 bc 8c 05 7a 3c 29 65 1d bd 52 1a 36 3b
       -0.024634583 0.015260112 -0.038426552 0.0027786684
000300 9e 46 9f bc 60 2b 1f bd 6c d3 45 3b 5c 3e 84 bd
       -0.019442853 -0.038859725 0.0030185832 -0.064572066
000310 11 8d 85 bd d9 9c b5 bc 29 6e 4e bd c1 d5 d8 bc
       -0.06521047 -0.022169517 -0.050398026 -0.026469113
000320 9e 4c bf bc b1 b2 cc 3c 6f f1 7b 3b 52 a7 ba 3c
       -0.023351964 0.02498755 0.0038443466 0.022784863
000330 f7 65 e7 3c 65 c7 8d 3b ee 48 8c 3c b2 14 45 3c
       0.028246863 0.004326748 0.01712462 0.01202886
000340 27 7c b9 3c 93 82 d5 3c 62 df 07 bd 67 f0 2b bd
       0.022642208 0.02606324 -0.03317202 -0.041977312
000350 f1 82 82 ba 0d 6c d0 3c a8 4c ce 3c a7 47 0f 3c
       -0.0009957236 0.025442148 0.025183037 0.008745111
000360 18 36 f8 bc 5c d3 8f bb 8e 1d d6 3b fa c3 c3 3c
       -0.030299231 -0.0043892097 0.006534285 0.02389716
000370 1d 95 a7 bb b2 06 dd 3c 2d 1b 9f ba f2 ec c7 bc
       -0.0051142112 0.026980732 -0.0012138836 -0.024404977
000380 bc 2e ab 3c fa 84 8d bb 5c 03 1c 3c d7 b3 e7 ba
       0.020896308 -0.0043188306 0.009522285 -0.0017677498
000390 e8 e3 6e bc 0c fc 4b 3a 9d 34 00 3c 5b 51 af 3a
       -0.014580704 0.00077813934 0.007825044 0.0013375686
0003a0 7b e4 f6 3c 6c db b4 3c d2 6f 21 bc c3 ad 19 bc
       0.030138245 0.022077285 -0.00985332 -0.009379807
0003b0 72 cf 68 bb 1e d3 f0 3b 40 4d 97 ba ea cc d9 bc
       -0.0035524038 0.007349386 -0.0011543408 -0.026586968
0003c0 7f 49 e7 bc 0e 98 23 bc 21 66 0c 3b b0 05 52 bc
       -0.028233288 -0.009984983 0.0021423178 -0.012818739
0003d0 30 fb b4 bb fc 9a 14 3c c7 24 07 bc 18 e6 1c bc
       -0.005523108 0.009070154 -0.0082485145 -0.009576343
0003e0 5e fd ef 3a 76 d3 4b 3c be d4 66 bc bd 85 7e bc
       0.0018309762 0.012440553 -0.014088808 -0.015534815
0003f0 8b ab d3 bb ff 1c 30 bb fe fb 5d 3c 9b 9c 0e bd
       -0.0064596585 -0.0026872752 0.013548849 -0.03481732

conv2.bias f4 [32]
000000 5c 4a 80 bb 5b e3 a9 bc 2a 70 32 bb 9e 87 c9 3c
       -0.0039151143 -0.020738294 -0.00272275 0.0246008
000010 13 dd e0 3c 7c 92 a5 3c 38 d7 6f bc 47 15 e2 3b
       0.027449166 0.02021145 -0.0146387145 0.006899509
000020 a2 2a 08 3c 53 d9 2d bc b9 5a 03 3a d1 11 28 3c
       0.008310946 -0.010610896 0.0005010772 0.010258154
000030 22 36 e6 3c 5a 4e 56 3c b2 80 f7 3a db 62 0e 3b
       0.028101984 0.013080204 0.0018882959 0.0021726403
000040 90 f9 8f bc f1 18 8a bc 83 f5 3d 3c 1e a2 bc 3c
       -0.017575055 -0.016857596 0.011594179 0.023026522
000050 46 50 ad 3b c6 6a ed 3b 19 c6 42 bc ad 22 96 3c
       0.0052891104 0.0072453944 -0.0118880505 0.018327082
000060 24 c6 f3 3c 87 5e 02 3d a1 b8 91 3c 91 29 24 3d
       0.029757567 0.03182843 0.017788233 0.040078703
000070 02 69 20 3c aa 46 4b 3b ab 30 81 3b d5 c8 09 3a
       0.009790661 0.003101746 0.0039425693 0.00052560616

conv3.weight f4 [1, 32, 5, 5]
000000 fa 2b 9b 3c 97 b4 93 3c 47 be 0b bb 2e 86 c6 3c
       0.018941868 0.018030448 -0.002132313 0.024233904
000010 ba 78 f9 3c 9a 67 f4 bc 86 1c 8a 3a 8b c5 0d bd
       0.030453075 -0.029834557 0.0010537065 -0.03461222
000020 1c fb 68 3b 55 3a 26 3c c9 f8 46 bb d7 0d e2 3c
       0.0035550063 0.010145743 -0.003036069 0.02759449
000030 13 31 41 3c 05 67 f9 bc 11 14 5d bb 3f 4c 85 bc
       0.011791485 -0.030444631 -0.0033733884 -0.016271709
000040 0f 08 ec bc c2 5e a8 b9 dc 77 04 bd 7c ae bb 3c
       -0.028812436 -0.00032114057 -0.03234087 0.02291035
000050 97 e0 87 3b a1 1b 4e 3c a4 74 a2 3c 43 16 e3 3c
       0.0041466462 0.012579829 0.01983101 0.027720576
000060 38 8c 8f bc fa 62 dd 3a 6c 63 0b bd 82 1a f2 3b
       -0.017522916 0.0016890459 -0.034030363 0.007388414
000070 22 93 d4 3c 99 3c bb bc d8 97 a3 3c 26 32 8c bc
       0.025949065 -0.022856044 0.019969866 -0.017113756
000080 66 74 1c 3c cc 65 82 bc 03 fe c7 3b 64 fb 0a bd
       0.009549236 -0.015917681 0.0061032786 -0.03393115
000090 37 38 d3 3c f9 3c 0b bc a2 e0 04 3d f7 1d 57 bc
       0.025783641 -0.008498424 0.03244079 -0.013129703
0000a0 4a 94 74 3c dd df 8e bc 33 6b 79 bc e4 5e 16 bc
       0.014927933 -0.01744073 -0.015223312 -0.009177897
0000b0 ca fe 87 3c 7d 51 62 3c 64 5c a4 3c 45 3f c7 bb
       0.016600985 0.013813374 0.020063587 -0.0060805404
0000c0 e7 fe 89 3b 79 f7 b1 3c ab 7c 61 bc fa 75 3f bc
       0.004211295 0.02172445 -0.013762633 -0.011685843
0000d0 5a 00 dc 3c a5 43 f4 bc 52 e4 8b bc d5 83 a0 bc
       0.026855636 -0.029817412 -0.017076645 -0.019594112
0000e0 25 0d f2 bb c1 b4 d4 bc 68 18 06 3c 37 37 ca bc
       -0.007386821 -0.025965096 0.00818453 -0.024684532
0000f0 aa 42 80 bc 4c 20 0d bd e3 73 c1 3c 31 ef b1 bc
       -0.015656788 -0.03445463 0.02361483 -0.0217205
000100 de f6 8c bb 43 54 ad bc 2a d3 a5 bb 66 1b e3 bb
       -0.00430189 -0.021158343 -0.005060573 -0.0069307564
000110 ab 48 3d bc 14 ae 09 ba 85 ea 76 3c 65 42 ee 3c
       -0.01155297 -0.0005252075 0.015070562 0.029084394
000120 f1 aa d5 3c a7 a2 d7 bc 2d 88 86 bb d5 29 cb bc
       0.026082488 -0.026322676 -0.004105589 -0.02480022
000130 76 7d f0 3b 73 82 66 3c 51 a8 88 3b c7 25 b9 3c
       0.007339175 0.014069187 0.0041704555 0.022601021
000140 9b 3f 88 3d b6 d3 cf 3c 9f 24 83 bc 6c f6 9d bc
       0.06652757 0.025369506 -0.016008673 -0.019282542
000150 0c ff 0b 3c d6 c3 6c 3d b7 fe b6 3c 14 3a 03 3b
       0.008544695 0.05780395 0.022338254 0.002002363
000160 32 3e 4e bc 12 c0 3d bb 20 a1 34 3c da 0b f6 bc
       -0.012588071 -0.0028953594 0.011024743 -0.030034948
000170 bd 3e 96 bd 4a aa ff bc 4d ab 47 3a 11 46 ae 3b
       -0.07336185 -0.03120913 0.00076167734 0.005318411
000180 f7 94 8b bc 52 de d7 bc a0 b4 31 bb 14 da 1b 3d
       -0.017038805 -0.026351128 -0.0027115718 0.038049772
000190 1a 26 c0 3b 5a 11 ec 3b 96 fa 61 3c 3a eb 55 bb
       0.005863917 0.007204217 0.0137926545 -0.0032641427
0001a0 f0 bf 5d 3b ca 61 fb bb 34 32 00 3d dc 41 41 ba
       0.0033836327 -0.0076715695 0.031297877 -0.00073721795
0001b0 cc 4a ca 3c 22 48 af bc 12 0a e6 bc 30 0c 7c 3b
       0.024693869 -0.0213967 -0.028080974 0.0038459413
0001c0 fe 6f 05 bd 9e 34 a4 3c 5d 4b a1 3c f8 35 e8 3c
       -0.032577507 0.020044621 0.019689256 0.028346047
0001d0 78 ed 00 3d 50 6d 30 3c f9 ff 53 3c 3d d1 bf bb
       0.031476468 0.01076825 0.012939447 -0.0058538006
0001e0 ff 8e 02 3d 4d 9e 6d 3c 8a 46 16 bc 1b 95 08 bd
       0.031874653 0.014503074 -0.009172091 -0.033345323
0001f0 13 22 75 3b bf b7 33 3b ef 05 ed 3c ba cb cb 3c
       0.0037404343 0.0027422754 0.028933493 0.024877418
000200 34 15 08 3d 90 9e 57 3b 3b 6f 05 3c cc cd e6 bc
       0.033223346 0.0032900907 0.008144195 -0.028174303
000210 00 4f c9 3b 9a 91 23 3c 3a 55 a2 bc 3b 65 a7 bc
       0.0061434507 0.009983445 -0.01981603 -0.020434013
000220 71 01 51 3c cb 3c ae bc 83 8e 40 bc 8e 34 da 3c
       0.012756691 -0.021269223 -0.011752727 0.026636388
000230 a0 62 db 3c b6 b2 f6 bc 92 39 01 bd 54 48 c3 3c
       0.026780427 -0.030114513 -0.031549044 0.0238382
000240 80 48 24 bc ea be 8c 3b aa 64 b5 bc 09 d3 54 bc
       -0.010027051 0.0042952197 -0.022142727 -0.012989768
000250 e6 06 ed 3c 1e c2 ba bc 90 e2 83 3b 95 34 b2 3c
       0.028933953 -0.02279764 0.004024811 0.021753589
000260 c8 05 4b 3d 9c df 0d 3d cd 04 2e 3c 57 85 75 3c
       0.04956606 0.03463708 0.010621262 0.014985404
000270 2e 0f 2e 3c dc 77 8f bc e4 e6 8d 3a 8b 19 45 3c
       0.010623736 -0.017513208 0.0010826257 0.012030016
000280 d6 c4 21 3c 88 59 10 bd 5a bb 83 bd 7e 5b 58 bd
       0.0098735895 -0.035241634 -0.06432219 -0.05282163
000290 8e da c9 bc 45 f5 b6 bc 5a 14 ae 3b c0 3e 11 3c
       -0.024640348 -0.02233375 0.0053124847 0.008865058
0002a0 67 90 ff 3c da 9d 1a bd 79 fe 17 bc e9 86 62 3d
       0.031196786 -0.037748195 -0.00927698 0.05530444
0002b0 fa 54 b7 3b 26 2a 2c 3d 6c 0c 30 3c 5f 10 78 bb
       0.005594847 0.042032383 0.010745149 -0.0037851555
0002c0 e6 b0 cd 3c a3 69 df 3c a9 ca 6b bc 29 14 fc ba
       0.025108766 0.027272051 -0.01439158 -0.0019232082
0002d0 11 13 08 3d 3a 4e f1 3c 68 ac 65 3c 12 1f b0 bc
       0.03322131 0.029456247 0.014018156 -0.02149919
0002e0 66 d5 c3 bc c2 8c cf 3c 28 2d a5 3c ea 04 90 bb
       -0.023905467 0.025335673 0.020163134 -0.004395117
0002f0 00 92 0a 3d e0 d1 c8 3c fd 9b 00 bc 8a 39 7c 3c
       0.033830643 0.024514139 -0.0078496905 0.015394578
000300 cd dd 0b 3d 79 55 a6 3c ed e8 8d bc 81 21 09 bd
       0.034147073 0.020304428 -0.017322982 -0.033479217
000310 4d d2 2f 3c bd 7b 55 3c 0b 74 0f bd 3f 7a a8 3b
       0.010731292 0.01302999 -0.035022777 0.005141526
000320 a4 df b3 bc 32 db 68 3c 50 10 91 bc ac 97 d7 bc
       -0.021957226 0.0142124165 -0.017707974 -0.02631744
000330 eb 6f 0b 3d 79 be a9 3c 3a 87 70 bc 5d 0d d6 bc
       0.03404228 0.020720707 -0.014680678 -0.026129419
000340 a8 94 c5 3c a1 aa b5 bc a4 b5 1d bc f7 b5 7d bc
       0.024118736 -0.022176089 -0.009625826 -0.015485278
000350 21 98 31 3c 2d 41 ba ba de c1 6b 3c 71 6d a7 bc
       0.010839493 -0.0014210098 0.014389483 -0.020437928
000360 5a 56 d2 3c b4 b8 8d 3b e8 f3 c4 bc b6 d9 d2 bc
       0.025675941 0.004324997 -0.024042085 -0.025738578
000370 c2 83 ab 3c 7b df 7c bc 7a 43 27 3c 76 bd b6 3a
       0.02093685 -0.015434141 0.010208959 0.0013941962
000380 19 59 85 bc 6b 08 0e 3d 77 9a 53 bc ed 4a 71 3c
       -0.016277837 0.034675997 -0.012915245 0.014727336
000390 09 a9 b4 3c c0 24 37 3c 0e 86 08 3d 47 69 c9 bc
       0.022053258 0.0111781955 0.03333097 -0.024586333
0003a0 00 1d 63 3b 43 2c 96 ba 3b cc 87 3c 4a a0 85 bc
       0.0034654737 -0.0011457283 0.016576877 -0.016311783
0003b0 e2 83 b5 bc cc 4e e5 bc d8 7e c1 3c b0 ae 17 3c
       -0.022157613 -0.027991675 0.023620054 0.009257957
0003c0 89 70 0c bd 71 ec 54 bb 09 5b f4 bc af fa f5 bc
       -0.03428701 -0.0032489563 -0.029828565 -0.030026762
0003d0 cb 33 af 3c e7 85 98 bc 8a 90 a7 3c d1 bf 05 3d
       0.021387001 -0.018618537 0.020454664 0.032653634
0003e0 a4 a0 a2 3b 00 23 77 3c 9f 10 fd bc e5 61 77 bc
       0.0049629975 0.015084028 -0.030891715 -0.0150990235
0003f0 84 2f 00 bb b7 3e f7 3b 11 08 6a 3c d7 0e 9c 3c
       -0.0019559572 0.007545318 0.01428415 0.019050045
