model.pth (torch, 82676 bytes, 6 tensors)

conv1.weight f4 [64, 3, 9, 9]
0.07590889 -0.00010191533 0.06416558 0.038474955 0.042241633 0.021768723 0.064431325 0.058380242
0.032269254 -0.038132492 -0.02674748 0.023764743 0.0063330284 -0.0056809243 0.047576908 -0.036929138
0.051515702 0.076570004 -0.053555597 -0.0061925007 -0.026460161 0.016449956 0.023918655 -0.076128684
-0.0707471 -0.012438715 -0.032021873 -0.03944243 -0.018684968 -0.049973156 0.009473937 0.06817647
0.014221077 -0.023651484 0.0057073054 0.006660948 0.05388111 0.0231063 -0.036424626 0.053143032
0.036471695 0.083619416 0.041883577 0.05023439 -0.03663667 -8.1967155e-06 -0.0067102006 0.039427776
-0.034952506 0.06068765 0.023218319 -0.032363307 0.026059493 0.016310543 0.0431839 0.064716496
-0.0018218546 0.024931526 0.04683048 0.078072034 0.031489182 -0.010367666 -0.018562173 -0.014688727
-0.04740026 -0.028830944 0.02456857 0.013965144 0.044099737 0.007810293 0.02019535 -0.030321449
0.06990164 0.031034773 -0.022966819 -0.03399027 -0.03678864 -0.023152445 -0.038278144 -0.020027181
0.0014893652 0.061222542 0.061329097 0.054675687 0.04506547 0.063200824 -0.021934332 0.03808696
0.035490885 0.06550153 0.084878415 -0.022437185 0.014872324 0.045342825 0.002524487 -0.014642698
-0.018374031 0.008179339 0.043375526 0.048629846 -0.0074527413 -0.063071966 -0.060199283 -0.018019844
-0.08999408 -0.012284203 -0.034842726 -0.010238927 0.02949489 0.04549383 -0.088367656 0.0031758032
-0.05365077 0.00856843 0.027935965 -0.044901274 0.026569422 -0.034132376 -0.030988479 -0.06911187
-0.004745904 0.043362375 0.0060716444 -0.057359707 0.026763815 0.047873538 -0.046911232 0.029607352
-0.026287276 -0.023903988 -0.06720163 -0.032161664 -5.2211686e-05 0.015248845 0.029096771 0.039202236
-0.04414319 -0.059024356 0.036837354 -0.07244454 0.00316618 0.0034568664 0.020448014 0.048123963
0.036383405 -0.017075408 0.038331546 0.034933615 0.057077594 -0.011703076 -0.035466813 -0.0072017293
0.04056118 0.007094724 0.048866052 0.008660062 0.026147919 -0.014314123 0.012764937 0.033603493
-0.0039996584 0.011696342 0.08635541 -0.0137466425 0.09797745 0.0694079 0.07719222 -0.01599532
-0.004795494 0.12785728 0.021457518 0.027965406 -0.027652754 -0.015877899 0.0139529165 0.005978714
0.057632115 -0.029482383 0.010537612 0.053709682 0.021878636 0.029859604 0.013686381 -0.04092963
-0.0003419753 -0.04884486 -0.008357567 0.005237574 0.019299937 0.059798494 -0.043289557 -0.0013418092
-0.028427463 -0.056832984 -0.033072125 -0.046025176 0.0704503 -0.040931165 0.019537633 0.005148511
0.044957045 0.00090115267 0.010927911 0.046652418 -0.04622144 -0.0058698906 -0.03967802 -0.03593976
0.00914867 0.009127021 0.02682116 -0.02987511 0.04966757 -0.021704933 -0.03840909 0.03274776
0.008468684 -0.052854996 -0.07400975 -0.02389574 -0.016517173 0.036222562 -0.0755142 0.023727106
-0.044342678 0.055205267 0.018825145 0.02455165 0.052015975 0.019163646 -0.021917671 0.022552256
0.01329302 0.038347412 0.069599174 0.04203074 -0.005416277 0.037669983 0.006336317 0.041222714
0.0611871 0.08596384 0.091478854 0.06853399 -0.029136894 0.06276123 0.0640554 0.001248038
-0.022360275 0.053654533 0.059604254 0.006889876 0.020021528 -0.054582976 0.075579405 0.048296385
00000000: 1f76 9b3d 60bb d5b8 3e69 833d ea97 1d3d
00000010: 9005 2d3d 5254 b23c 92f4 833d 1f20 6f3d
00000020: c42c 043d d130 1cbd 881d dbbc 47ae c23c
00000030: 4b85 cf3b 0c27 babb 01e0 423d 0243 17bd
00000040: 2102 533d bcd0 9c3d 1d5d 5bbd 76ea cabb
00000050: fbc2 d8bc 0fc2 863c 0ef1 c33c 5be9 9bbd
00000060: dbe3 90bd c1cb 4bbc 5e29 03bd 638e 21bd
00000070: 3811 99bc a7b0 4cbd 9238 1b3c 1ba0 8b3d
00000080: 85ff 683c c2c0 c1bc 5904 bb3b 1544 da3b
00000090: 70b2 5c3d 6c49 bd3c fd31 15bd 82ac 593d
000000a0: 5863 153d a840 ab3d 1d8e 2b3d 93c2 4d3d
000000b0: 5510 16bd a084 09b7 3ee1 dbbb 057f 213d
000000c0: 5c2a 0fbd 9d93 783d 5834 be3c 638f 04bd
000000d0: b87a d53c b09d 853c 9ae1 303d 158a 843d
000000e0: 4ccb eeba 333d cc3c 51d1 3f3d 3be4 9f3d
000000f0: cdfa 003d 25dd 29bc b30f 98bc fda8 70bc
00000100: c626 42bd df2e ecbc 0744 c93c 0fce 643c
00000110: eda1 343d 7ded ff3b b870 a53c b064 f8bc
00000120: 9728 8f3d a33c fe3c e924 bcbc 6239 0bbd
00000130: afaf 16bd 32aa bdbc 8bc9 1cbd 0b10 a4bc
00000140: ce36 c33a 7dc4 7a3d 3834 7b3d 9df3 5f3d
00000150: 9296 383d 6f6f 813d a1af b3bc 1201 1c3d
00000160: e45e 113d ab25 863d bcd4 ad3d 30ce b7bc
00000170: 0cab 733c 66b9 393d dd71 253b ede7 6fbc
00000180: 2385 96bc a202 063c 89aa 313d 1730 473d
00000190: 2036 f4bb e02b 81bd 8693 76bd 5a9e 93bc
000001a0: d14e b8bd af43 49bc 3fb7 0ebd 2cc1 27bc
000001b0: 449f f13c bd57 3a3d 1afa b4bd 2321 503b
000001c0: e9c0 5bbd 9a62 0c3c f7d9 e43c 66ea 37bd
000001d0: 1ea8 d93c 64ce 0bbd 8ddb fdbc 868a 8dbd
000001e0: 8783 9bbb bf9c 313d a5f4 c63b 03f2 6abd
000001f0: ca3f db3c 0b17 443d fe25 40bd 1e8b f23c
00000200: 6a58 d7bc 4cd2 c3bc 02a1 89bd f3bb 03bd
00000210: dffd 5ab8 4bd6 793c 5a5c ee3c 8692 203d
00000220: 7dcf 34bd 86c3 71bd c4e2 163d ce5d 94bd
00000230: b07f 4f3b 988c 623b 9882 a73c a21d 453d
00000240: c406 153d bae1 8bbc 8a01 1d3d 8d16 0f3d
00000250: 32ca 693d 42be 3fbc a645 11bd 7cfc ebbb
00000260: 7b23 263d dc7a e83b c527 483d efe2 0d3c
00000270: 2934 d63c c985 6abc 0724 513c d1a3 093d
00000280: 910f 83bb 04a2 3f3c 1bdb b03d 9939 61bc
00000290: 67a8 c83d bb25 8e3d f416 9e3d 9e08 83bc
000002a0: 8523 9dbb 05ed 023e adc7 af3c b517 e53c
000002b0: 0788 e2bc 5e12 82bc c69a 643c 17e9 c33b
000002c0: a70f 6c3d 0a85 f1bc f3a5 2c3c affe 5b3d
000002d0: d33a b33c 219c f43c d83c 603c d4a5 27bd
000002e0: 264b b3b9 8c11 48bd 2dee 08bc f59f ab3b
000002f0: e71a 9e3c 44ef 743d 6450 31bd a5df afba
00000300: b6e0 e8bc b4c9 68bd a376 07bd e584 3cbd
00000310: 3f48 903d 70a7 27bd 630d a03c d7b4 a83b
00000320: e124 383d 553b 6c3a fb0a 333c 9b16 3f3d
00000330: b152 3dbd 3658 c0bb 6b85 22bd 9235 13bd
00000340: 4ee4 153c 8089 153c 0db8 db3c a6bc f4bc
00000350: 3970 4b3d 8bce b1bc da52 1dbd 8422 063d
00000360: 3cc0 0a3c 7b7e 58bd 6c92 97bd 00c1 c3bc
00000370: 064f 87bc 1c5e 143d 30a7 9abd 595f c23c
00000380: aba0 35bd eb1e 623d 3137 9a3c 8b20 c93c
00000390: b40e 553d 14fd 9c3c b08c b3bc 82bf b83c
000003a0: f8ca 593c 2d12 1d3d 038a 8e3d 6d28 2c3d
000003b0: 067b b1bb d74b 1a3d e1a0 cf3b 26d9 283d
000003c0: 539f 7a3d cf0d b03d 4459 bb3d 8c5b 8c3d
000003d0: 7fb0 eebc f688 803d 7a2f 833d 3595 a33a
000003e0: e52c b7bc dbc4 5b3d 9723 743d 78c4 e13b
000003f0: 3004 a43c 6692 5fbd 60c9 9a3d 6ed2 453d

conv1.bias f4 [64]
0.08089171 0.018243918 -0.01002044 0.048754368 -0.03479 0.087117724 0.025378896 -0.009164249
0.011196494 -0.028215583 0.040384587 -0.00901531 0.027674543 -0.035897084 -0.017933654 -0.006127604
-0.016292186 -0.03796902 0.037133712 0.04361266 0.0752046 -0.020372866 0.0009658199 -0.011115589
-0.028371463 0.08519562 -0.0016006995 0.06689496 -0.049007136 0.038176958 0.0688953 -0.02196875
-0.007565069 -0.035388272 0.024647875 0.077741235 -0.06963777 -0.033897497 -0.02527557 0.05071119
0.02192496 0.053287935 0.01810067 -0.029003775 0.043021683 0.09250059 -0.13640818 0.00791469
-0.0048455764 -0.018111773 -0.017768031 0.010550926 0.024784172 0.091342315 0.061729662 -0.03364068
0.049297888 0.023040028 0.006351881 0.101026356 0.0663141 0.014822256 -0.062443327 0.08627002
00000000: 8eaa a53d 4574 953c c62c 24bc a9b2 473d
00000010: f67f 0ebd c76a b23d 67e7 cf3c a525 16bc
00000020: 8071 373c 5e24 e7bc 4f6a 253d f3b4 13bc
00000030: b9b5 e23c d208 13bd 99e9 92bc 11ca c8bb
00000040: 3177 85bc 6785 1bbd 8519 183d 30a3 323d
00000050: df04 9a3d ffe4 a6bc 142f 7d3a 291e 36bc
00000060: 456b e8bc 0b7b ae3d 90ce d1ba 3a00 893d
00000070: b5bb 48bd 715f 1c3d fb18 8d3d cff7 b3bc
00000080: 66e4 f7bb 4bf3 10bd 57ea c93c cc36 9f3d
00000090: 3f9e 8ebd 1ad8 0abd b60e cfbc 89b6 4f3d
000000a0: f99b b33c 7344 5a3d db47 943c 5399 edbc
000000b0: 8137 303d f370 bd3d 96ae 0bbe 9eac 013c
000000c0: a4c7 9ebb 245f 94bc 438e 91bc cbdd 2c3c
000000d0: 2d08 cb3c ae11 bb3d 3ed8 7c3d cfca 09bd
000000e0: 95ec 493d 71be bc3c 7123 d03b e8e6 ce3d
000000f0: b0cf 873d 0cd9 723c 93c4 7fbd 56ae b03d

conv2.weight f4 [32, 64, 1, 1]
-0.019985534 0.01116021 -0.357296 0.05386412 0.05393434 -0.18141103 0.009486312 -0.07033191
-0.12386011 0.066311 0.0694309 -0.06298305 -0.4184198 -0.0296389 -0.34526166 -0.13199978
-0.08599592 -0.05181972 0.034987725 0.017280385 -0.08143853 -0.22310972 -0.11909717 -0.16991429
0.015435743 0.059309077 0.09307964 0.09408288 -0.026836872 -0.27940497 0.36200884 -0.075949095
0.2045065 -0.12732348 -0.10778511 0.017606882 0.058464732 0.72874874 0.057495512 -0.06210855
-0.053994685 0.06863388 0.3306338 0.06133626 -0.037438624 -0.051171497 0.12222656 -0.40988815
0.09017189 -0.079298764 -0.100237966 -0.032326847 0.036309145 -0.044647023 0.030150544 0.07225176
0.064304635 -0.112692684 -0.014384363 -0.04447979 0.12721355 -0.015207682 0.055863082 -0.050036762
-0.15565674 -0.2899667 0.10471423 0.048766304 -0.08324419 -0.031431697 -0.015105893 0.05970125
-0.11365034 0.120419085 0.037405487 -0.02751418 0.082303375 0.09442477 0.1519738 -0.05816719
-0.15260856 -0.014543827 -0.12535483 -0.14163883 0.042196378 0.08199096 0.051054716 0.09234767
-0.0072934125 -0.07844141 0.0030099626 0.088321395 0.08851385 0.10133128 -0.20179838 -0.05938088
0.22267891 0.11895112 -0.25246465 0.007982105 0.038989734 0.035695814 -0.11321884 0.005128472
0.024163112 -0.05408308 0.14048475 0.04039869 -0.02891378 -0.013918162 -0.14704224 -0.019882528
0.3051875 0.06502781 0.040891163 0.050914247 0.08017986 0.088936135 0.0635029 0.090538785
0.020492494 -0.019808438 -0.013056348 -0.020353075 0.27913713 0.09344384 -0.10833359 -0.0705451
-0.038335487 0.067880526 0.02202834 0.06390153 0.104761414 -0.111788236 0.019722473 -0.041561
0.0028203228 0.09677303 -0.040956024 -0.07886172 0.10501249 0.069667116 0.04766205 0.07305423
-0.0370277 0.022886258 -0.11144808 0.070293374 -0.03126764 -0.09692835 0.010096505 0.011729941
-0.060842954 -0.04228996 -0.06919137 0.07955569 0.072176516 -0.023418587 0.059074055 -0.0072751837
0.032356936 0.06365136 -0.47545576 0.07444117 -0.064146675 -0.06809998 0.101428375 0.107371256
-0.019638164 -0.17500488 0.42313492 0.10699233 -0.3060207 -0.04498324 0.38080046 0.010603074
-0.24781084 -0.11180657 0.07540388 0.06755442 0.07098355 0.05727605 -0.036825966 0.070773445
0.03652552 0.006425826 -0.034544226 -0.13444318 0.21496324 0.18184738 0.051427934 -0.054654717
-0.0055278474 -0.035912685 -0.13946421 0.0013518968 0.16136529 0.0745922 -0.014678116 0.057659507
-0.04838748 -0.34612218 0.026058637 0.019100862 0.0052074594 -0.059953857 -0.17945367 -0.0021105146
0.07080545 -0.008862638 0.14243451 -0.011020018 -0.14749208 -0.29815826 -0.10244047 -0.055267215
0.04973015 0.09378328 0.12947085 -0.009723872 0.039027046 -0.06956749 0.20343019 0.35272983
0.17268294 -0.40065253 -0.076537445 0.022088971 0.113046646 0.27224758 0.027485063 0.086621866
0.003381638 -0.061534345 0.2592521 0.054684915 -0.016889507 -0.09955511 -0.016726922 0.072175
0.108315565 -0.107649624 0.11588291 0.09979185 -0.0071699535 -0.18090835 -0.11751386 0.0031035803
-0.07885179 -0.037704725 0.06073343 0.07504607 0.015065585 -0.09238632 0.011067397 0.012679974
00000000: b4b8 a3bc 50d9 363c 80ef b6be a0a0 5c3d
00000010: 41ea 5c3d d0c3 39be 7a6c 1b3c 2d0a 90bd
00000020: 5faa fdbd 10ce 873d ca31 8e3d 42fd 80bd
00000030: 1f3b d6be 47cd f2bc 23c6 b0be f32a 07be
00000040: a11e b0bd ea40 54bd 4a4f 0f3d 988f 8d3c
00000050: 3ec9 a6bd e076 64be 38e9 f3bd 03fe 2dbe
00000060: 33e6 7c3c 13ee 723d 8aa0 be3d 86ae c03d
00000070: 00d9 dbbc 2b0e 8fbe 3959 b93e 338b 9bbd
00000080: 276a 513e 1661 02be 71be dcbd 4f3c 903c
00000090: b778 6f3d 478f 3a3f 6a80 6b3d 8965 7ebd
000000a0: 8829 5dbd eb8f 8c3d d548 a93e bb3b 7b3d
000000b0: 3e59 19bd 3499 51bd eb51 fa3d dcdc d1be
000000c0: 0aac b83d 6467 a2bd 9049 cdbd 2869 04bd
000000d0: e6b8 143d ccdf 36bd 46fe f63c bbf8 933d
000000e0: 26b2 833d 6ccb e6bd 64ac 6bbc 7130 36bd
000000f0: 4544 023e a429 79bc b0d0 643d 59f3 4cbd
00000100: 7b64 1fbe 8476 94be 6a74 d63d 2dbf 473d
00000110: ee7b aabd 86be 00bd b57e 77bc 4c89 743d
00000120: 82c1 e8bd 489e f63d 7f36 193d 6b65 e1bc
00000130: ac8e a83d c661 c13d 059f 1b3e b840 6ebd
00000140: 6b45 1cbe 3b49 6ebc 045d 00be c509 11be
00000150: 1cd6 2c3d e0ea a73d c01e 513d c620 bd3d
00000160: 94fd eebb e4a5 a0bd cb42 453b d9e1 b43d
00000170: c046 b53d c686 cf3d 3ca4 4ebe 5e39 73bd
00000180: f105 643e a59c f33d 0c43 81be 60c7 023c
00000190: b3b3 1f3d c635 123d 47df e7bd be0c a83b
000001a0: b8f1 c53c 3886 5dbd 3cdb 0f3e 1979 253d
000001b0: 97dc ecbc 0109 64bc 3e92 16be afe0 a2bc
000001c0: 8941 9c3e 4d2d 853d 7e7d 273d 758b 503d
000001d0: 5735 a43d 2624 b63d cf0d 823d 666c b93d
000001e0: e0df a73c 4e45 a2bc 4bea 55bc 7ebb a6bc
000001f0: 10eb 8e3e 7c5f bf3d 00de ddbd f379 90bd
00000200: ac05 1dbd f204 8b3d c774 b43c cede 823d
00000210: 278d d63d 3bf1 e4bd 0691 a13c de3b 2abd
00000220: 2ad5 383b f030 c63d 81c1 27bd 4182 a1bd
00000230: ca10 d73d a2ad 8e3d 4839 433d 759d 953d
00000240: 5caa 17bd f67b bb3c e43e e4bd f9f5 8f3d
00000250: 7f12 00bd 5f82 c6bd d06b 253c f02e 403c
00000260: 7636 79bd 3d38 2dbd 34b4 8dbd 18ee a23d
00000270: 48d1 933d 56d8 bfbc a3f7 713d aa64 eebb
00000280: b588 043d a55b 823d f06e f3be 9d74 983d
00000290: 555f 83bd 0178 8bbd aeb9 cf3d 76e5 db3d
000002a0: 37e0 a0bc 7b34 33be 24a5 d83e cb1e db3d
000002b0: bfae 9cbe 5940 38bd 47f8 c23e 84b8 2d3c
000002c0: 20c2 7dbe d8fa e4bd 596d 9a3d f959 8a3d
000002d0: d35f 913d 4b9a 6a3d d3d6 16bd abf1 903d
000002e0: c99b 153d bc8f d23b 3f7e 0dbd 79ab 09be
000002f0: 531f 5c3e 3336 3a3e 19a6 523d a0dd 5fbd
00000300: f222 b5bb 2e19 13bd b5cf 0ebe 2132 b13a
00000310: f13c 253e ccc3 983d 7b7c 70bc 602c 6c3d
00000320: f331 46bd ed36 b1be ec78 d53c 6979 9c3c
00000330: 56a3 aa3b 2d92 75bd b4c2 37be 8f50 0abb
00000340: 7302 913d 9934 11bc 5ada 113e 4e8d 34bc
00000350: 2a08 17be 33a8 98be 4fcc d1bd e05f 62bd
00000360: d7b1 4b3d 7311 c03d 0294 043e e050 1fbc
00000370: d3da 1f3d 6679 8ebd 0150 503e 0199 b43e
00000380: ccd3 303e 5422 cdbe aabf 9cbd eef3 b43c
00000390: 0085 e73d 0964 8b3e 5b28 e13c ce66 b13d
000003a0: 799e 5d3b 700b 7cbd b1bc 843e 4afd 5f3d
000003b0: dd5b 8abc 8de3 cbbd e606 89bc 7dd0 933d
000003c0: 8dd4 dd3d 6877 dcbd 0554 ed3d ab5f cc3d
000003d0: eef1 eabb 0a40 39be 1bab f0bd 7065 4b3b
000003e0: 0c7d a1bd 4570 1abd 9ec3 783d c1b1 993d
000003f0: a5d5 763c 0a35 bdbd 0754 353c aabf 4f3c

conv2.bias f4 [32]
-0.03446849 -0.027416194 -0.005249079 -0.0016357535 -0.03462009 -0.040541403 -0.0022308666 -0.05299154
0.038527433 0.011025775 0.009001757 0.017809989 0.026645841 -0.03988727 -0.0013415817 0.029325847
0.021234386 0.0086323805 0.011106997 -0.018365288 -0.035194956 0.09829934 -0.084467664 0.002322233
-0.0026450271 0.009044629 -0.04096854 0.040667098 -0.022784976 0.023083024 0.032973267 0.016362876
00000000: d52e 0dbd ed97 e0bc 7700 acbb c866 d6ba
00000010: cccd 0dbd be0e 26bd bb33 12bb a80d 59bd
00000020: f1ce 1d3d 74a5 343c 1b7c 133c 41e6 913c
00000030: 6148 da3c d660 23bd 03d8 afba c23c f03c
00000040: bcf3 ad3c d46e 0d3c 1ffa 353c cd72 96bc
00000050: 9628 10bd 2a51 c93d 62fd acbd 9b30 183b
00000060: 3158 2dbb ec2f 143c a1ce 27bd 8b92 263d
00000070: 8fa7 babc 9c18 bd3c fa0e 073d 700b 863c

conv3.weight f4 [3, 32, 5, 5]
0.1414293 0.12173978 0.14936295 0.1469972 0.25308076 0.07824008 0.08428894 0.07447767
0.11446104 0.14202915 0.044718325 0.043687876 0.063432865 0.090314485 0.120877296 0.051460728
0.045846857 0.067193605 0.07534198 0.11156858 -0.0818826 0.011650138 -0.014004551 0.011975941
0.032480996 -0.008942096 -0.025036935 -0.024803573 0.0054335594 0.0075587323 -0.028720729 0.00035938784
-0.014961338 -0.008563054 -0.0046062027 0.000669825 0.017970204 0.025779814 0.01817878 0.048853118
0.025364527 0.015694685 0.00053610577 0.03935944 0.030593576 0.062794335 0.05066271 0.07455074
0.003763397 0.08326009 -0.027674004 -0.01801259 -0.0004945233 -0.009286304 -0.03326768 0.024513144
0.011748961 0.011211011 0.015850754 -0.012020594 0.0035832764 0.00031000603 0.020930074 0.031528115
0.0479398 0.01492105 0.020708144 -0.025382724 0.0293901 0.040897 0.02435566 0.029493202
0.07157648 0.076938555 0.07467717 -0.13589032 -0.015274764 0.071057156 0.13013545 0.28218898
-0.100582875 -0.038411073 0.017998377 0.031844985 0.12576902 -0.13255031 -0.043676984 -0.028505925
-0.0049493755 0.07396818 -0.064825624 -0.02913014 -0.029696042 -0.010355358 0.06474725 0.1357523
-0.031958465 0.01818 0.0047915573 -0.123773605 -0.0057097664 0.030660057 0.0008439542 0.032529462
0.051536117 0.0026220768 -0.008100446 0.033523638 0.04383868 0.053168304 0.023176352 0.017538676
0.051976975 0.012951764 0.06838048 0.0035658048 -0.005905937 -0.014864965 0.01299145 0.06186902
0.028097935 0.011077119 0.04927567 0.07182795 0.14862199 0.124298446 0.07688433 0.08578773
0.043379806 -0.009470961 0.07795302 0.06930045 0.041950773 0.039431896 -0.006377695 0.1306168
0.08585111 0.06421085 0.050284788 -0.02116353 0.07123537 0.12366494 0.06539853 0.0388058
-0.040130436 0.2744411 0.16579714 0.116622016 0.11137916 -0.07565111 -0.003150315 -0.0029715449
0.024713444 -0.0125069395 0.04046624 0.041084345 0.018633645 0.03178483 -0.019788798 -0.022876216
0.033413146 -0.005403218 -0.023233559 -0.0059164627 -0.01713715 -0.004277407 -0.00011824843 -0.013661415
-0.015481442 0.004998307 0.0029416168 0.009762431 -0.040016852 0.0006376609 -0.01134583 0.3475487
0.12926781 0.1419954 0.07332833 -0.11510941 0.18862547 0.10936704 0.073190555 -0.0034573383
-0.06255189 0.18029302 0.08234962 0.08410809 0.015093477 -0.07191306 0.16206166 0.011674178
0.04194455 0.009039298 -0.0237697 -0.12887911 -0.09716695 -0.054651387 -0.042367436 0.09736328
-1.3080469e-05 -0.016062342 -0.02373863 -0.015748894 -0.07304076 -0.0064679277 -0.018725522 -0.0033791817
-0.022456352 0.007305008 -0.007800223 -0.030857317 0.013098274 -0.014234211 0.0012156726 -0.014651026
0.009944062 0.020548953 -0.02694547 0.0011919262 -0.034779087 -0.008669309 -0.0050892914 0.013415887
0.079001695 0.052122023 -0.0020768107 0.04683799 -0.035245065 0.007547657 -0.0058352877 -0.0034716735
0.007605853 -0.019851364 0.047804475 0.018717512 0.031140639 0.08158137 0.04749333 0.0022809072
0.0020853602 -0.03914829 0.008510321 -0.05051041 -0.01356631 -0.034549028 -0.042349074 0.008634264
-0.017135372 -0.0099351145 0.07951188 0.004705226 0.008525146 -0.0009824776 -0.006236223 0.037057746
00000000: d8d2 103e b552 f93d 9af2 183e 6f86 163e
00000010: cd93 813e 563c a03d ae9f ac3d c087 983d
00000020: 8d6a ea3d 1770 113e 902a 373d 0ff2 323d
00000030: 17e9 813d cdf6 b83d 848e f73d 7cc8 523d
00000040: eac9 3b3d cd9c 893d e54c 9a3d 117e e43d
00000050: 11b2 a7bd 38e0 3e3c 5873 65bc bd36 443c
00000060: cb0a 053d de81 12bc 421a cdbc dd30 cbbc
00000070: 000c b23b 3eaf f73b bc47 ebbc 386c bc39
00000080: 6620 75bc 0d4c 0cbc a1ef 96bb 3297 2f3a
00000090: 4036 933c 3030 d33c aaeb 943c 351a 483d
000000a0: 45c9 cf3c 2492 803c 7389 0c3a 5d37 213d
000000b0: 619f fa3c 519a 803d b483 4f3d 0fae 983d
000000c0: 53a3 763b 4484 aa3d 98b4 e2bc 248f 93bc
000000d0: e6a2 01ba 9525 18bc b143 08bd cacf c83c
000000e0: b77e 403c 63ae 373c 71d9 813c 07f2 44bc
000000f0: 67d5 6a3b 4e88 a239 8c75 ab3c a023 013d
00000100: 865c 443d 6b77 743c 20a4 a93c 6eef cfbc
00000110: 82c3 f03c 9d83 273d 8585 c73c ba9b f13c
00000120: b196 923d f691 9d3d 58f0 983d d526 0bbe
00000130: 0143 7abc 6a86 913d 3a42 053e 137b 903e
00000140: 65fe cdbd ee54 1dbd 5571 933c e36f 023d
00000150: 98c9 003e 45bb 07be a3e6 32bd 4285 e9bc
00000160: 5f2e a2bb a17c 973d 4cc3 84bd 55a2 eebc
00000170: 1d45 f3bc 85a9 29bc 359a 843d a702 0b3e
00000180: e1e6 02bd 39ee 943c 7f02 9d3b 047d fdbd
00000190: fe18 bbbb cd2a fb3c cf3c 5d3a 9d3d 053d
000001a0: 8917 533d 26d7 2b3b bcb7 04bc 1550 093d
000001b0: 3090 333d 02c7 593d 55dc bd3c 45ad 8f3c
000001c0: cfe5 543d a333 543c 110b 8c3d 47b0 693b
000001d0: 9786 c1bb 2f8c 73bc 17da 543c 5f6a 7d3d
000001e0: a42d e63c ce7c 353c 49d5 493d 881a 933d
000001f0: 5d30 183e 2f90 fe3d 8875 9d3d 7ab1 af3d
00000200: 06af 313d 172c 1bbc d5a5 9f3d 65ed 8d3d
00000210: 93d4 2b3d 5783 213d fcfb d0bb 69c0 053e
00000220: b5d2 af3d fa80 833d 6cf7 4d3d 245f adbc
00000230: dae3 913d 0b44 fd3d aaef 853d d5f2 1e3d
00000240: d05f 24bd 8b83 8c3e bac6 293e 86d7 ee3d
00000250: c21a e43d f8ee 9abd 8475 4ebb 40be 42bb
00000260: d973 ca3c e8e9 4cbc eebf 253d 0f48 283d
00000270: 96a5 983c cf30 023d 1e1c a2bc e766 bbbc
00000280: 39dc 083d 7a0d b1bb 4e54 bebc e3de c1bb
00000290: 3563 8cbc 7e29 8cbb 24fc f7b8 21d4 5fbc
000002a0: e0a5 7dbc d7c8 a33b 24c8 403b 9af2 1f3c
000002b0: b6e8 23bd b328 273a dce3 39bc e7f1 b13e
000002c0: c85e 043e 3e67 113e 2a2d 963d 7bbe ebbd
000002d0: 0927 413e d4fb df3d eee4 953d 8394 62bb
000002e0: 351b 80bd bc9e 383e eba6 a83d dd40 ac3d
000002f0: a24a 773c 2847 93bd 7ef3 253e 0d45 3f3c
00000300: 0cce 2b3d 9019 143c adb8 c2bc e3f8 03be
00000310: 77ff c6bd 22da 5fbd 7a89 2dbd 6666 c73d
00000320: 3074 5bb7 2c95 83bc 8477 c2bc d303 81bc
00000330: 6596 95bd e9f0 d3bb 4466 99bc 4375 5dbb
00000340: 62f6 b7bc d95e ef3b 0399 ffbb 7cc8 fcbc
00000350: 259a 563c 9c36 69bc 3457 9f3a db0a 70bc
00000360: 6bec 223c 4756 a83c bfbc dcbc 683a 9c3a
00000370: 8474 0ebd b809 0ebc 12c4 a6bb 4fce 5b3c
00000380: a4cb a13d e77d 553d 1a1b 08bb 31d9 3f3d
00000390: 215d 10bd 5652 f73b f135 bfbb 0485 63bb
000003a0: 853a f93b 549f a2bc a0ce 433d 7855 993c
000003b0: a71a ff3c 2214 a73d 5e88 423d 467b 153b
000003c0: 8aaa 083b f559 20bd e06e 0b3c 01e4 4ebd
000003d0: 3a45 5ebc 4883 0dbd 3976 2dbd ba76 0d3c
000003e0: 7b5f 8cbc e4c6 22bc 20d7 a23d 4c2e 9a3b
000003f0: 0ead 0b3c 7ac6 80ba 3b59 ccbb ddc9 173d

conv3.bias f4 [3]
0.00450369 0.041171893 0.027984405
00000000: b193 933b dca3 283d 8d3f e53c
